stage1/turner/cifar_net.pth (torch, 251167 bytes, 10 tensors)

conv1.weight f4 [6, 3, 5, 5]
0	0xbe5e02dc	-0.21680778
1	0xbe057b12	-0.13035229
2	0xbe4cd653	-0.20003633
3	0xbe36b2aa	-0.17841592
4	0xbe125eb8	-0.14293945
5	0xbdf14a5a	-0.117817596
6	0xbdbf3fb0	-0.09338319
7	0xbe6149bb	-0.22000782
8	0xbdd5101f	-0.104034655
9	0xbdefcfd8	-0.11709565
10	0xbea1a5ca	-0.315718
11	0xbe87de54	-0.2653681
12	0xbe6f9088	-0.23394978
13	0xbdc6c74c	-0.097059816
14	0xbd95b293	-0.07309451
15	0xbec6912a	-0.38782626
16	0xbe0c9ccd	-0.1373169
17	0xbdf4e684	-0.1195803
18	0xbde8fdd3	-0.11376538
19	0xbe1ecccd	-0.15507813
20	0xbea69ebc	-0.3254298
21	0xbe66ba6e	-0.22532055
22	0xbe3c7210	-0.18402886
23	0xbe3e1b3c	-0.18565077
24	0xbdd4fec0	-0.10400152
25	0xbe1166c3	-0.14199357
26	0xbdd0a589	-0.10187823
27	0x3de15f53	0.1100451
28	0xbd6b359c	-0.057424173
29	0x3d6c4d0b	0.05769066
30	0x3d5efa4d	0.054437924
31	0xbcf542c6	-0.029939067
32	0x3cf63dd3	0.030058777
33	0x3d840acb	0.06447371
34	0xbce97a3e	-0.028500672
35	0xbd6cfaef	-0.057856496
36	0x3d1295a6	0.035787247
37	0x3dc850cc	0.09781036
38	0xbd3fbd8b	-0.04681162
39	0x3d6ef914	0.05834301
40	0x3d727a6e	0.05919879
41	0x3b5599f2	0.003259298
42	0x3dc61b5e	0.096731886
43	0x3c1921d6	0.009346446
44	0xbd1a16da	-0.03761945
45	0xbe3e40fb	-0.18579476
46	0xbe4cc46d	-0.19996805
47	0xbe001957	-0.12509666
48	0xbd611ae9	-0.054957304
49	0x3c397b29	0.011320868
50	0x3e1cd1bb	0.15314381
51	0x3e811b90	0.2521634
52	0x3d825608	0.063640654
53	0x3de47e4f	0.11156904
54	0x3e19f7f3	0.15035991
55	0x3e863e67	0.26219484
56	0x3e9a173d	0.30095854
57	0x3e9239ee	0.28559822
58	0x3e589118	0.21149099
59	0x3de92c13	0.113853596
60	0x3e83a692	0.2571302
61	0x3ea1f749	0.31633976
62	0x3ded91d2	0.11600079
63	0x3e838851	0.2568994
64	0x3d59a704	0.053137794
65	0x3e259f19	0.16173972
66	0x3e79ff88	0.24413884
67	0x3e184b2d	0.14872427
68	0x3e270b52	0.16312912
69	0x3e8720a8	0.26392102
70	0x3cbcc7ea	0.023044545
71	0x3d6c25c8	0.05765322
72	0x3ce07a7a	0.027402151
73	0x3e0a0b6f	0.13480924
74	0x3de7a1f7	0.11310189
75	0xbbe11be8	-0.0068697818
76	0x3d5ce0b8	0.053925246
77	0x3ca7dbff	0.020490644
78	0x3dbabe8c	0.09118375
79	0x3d945e1d	0.07244513
80	0xbea4bc54	-0.32174933
81	0xbe93cc05	-0.28866592
82	0xbda5b204	-0.080905944
83	0xbe8016fb	-0.25017533
84	0xbe2ab630	-0.16671062
85	0xbeb0adca	-0.3450759
86	0xbe90eb8d	-0.2830471
87	0xbef27ad2	-0.4735933
88	0xbebc4ee9	-0.36778954
89	0xbe78806b	-0.24267738
90	0x3d5a5582	0.053304203
91	0xbcfa78de	-0.030575212
92	0x3e0e7941	0.13913442
93	0x3d86d5ad	0.06583724
94	0xbdd98b3d	-0.10622261
95	0x3e9d5179	0.3072622
96	0x3ec61ad0	0.3869233
97	0x3eb0afea	0.34509212
98	0x3ec48a08	0.3838656
99	0x3ed22277	0.4104192
100	0xbd954248	-0.07288033
101	0x3e58d629	0.21175446
102	0x3e3b4458	0.1828779
103	0x3e97587b	0.29559693
104	0x3e056aae	0.13028976
105	0xbd448377	-0.047976937
106	0xbd3fd6e6	-0.046835802
107	0x3c775967	0.015096999
108	0xbad81e19	-0.0016488462
109	0xbc33b54f	-0.01096852
110	0xbe47ead4	-0.19523174
111	0xbeb3cf49	-0.35119084
112	0xbed01dbc	-0.40647686
113	0xbe877fa5	-0.26464573
114	0xbe578d95	-0.21050103
115	0xbd7cca1c	-0.061716184
116	0xbd951a1d	-0.07280371
117	0xbe06a786	-0.13149843
118	0xbc954f6f	-0.018226353
119	0xbd39cd4f	-0.045361813
120	0xbdaf1c23	-0.085502885
121	0x3e07f8bd	0.1327848
122	0x3e512a81	0.2042637
123	0x3d9ba9d6	0.07600753
124	0x3d3f69f1	0.046731893
125	0x3d792b06	0.060832046
126	0x3ea019a0	0.3126955
127	0x3e525bb2	0.20542791
128	0x3e832de8	0.2562096
129	0x3ead229a	0.3381546
130	0x3dcd72c9	0.10031659
131	0xbc9cfc5c	-0.019163303
132	0x3d941d6b	0.072321735
133	0x3d31736c	0.043322966
134	0x3e2ba6ce	0.1676285
135	0xbe009ee0	-0.12560606
136	0xbdd52ef6	-0.10409348
137	0xbe729f60	-0.23693609
138	0xbe988a78	-0.29793143
139	0xbe11b7db	-0.14230292
140	0x3d9b2798	0.07575911
141	0x3d3468fc	0.044045433
142	0xbd9cff4c	-0.076658815
143	0x3d5b0089	0.053467307
144	0xbd836d3a	-0.06417318
145	0x3d8ddf46	0.06927352
146	0x3dad69a6	0.084674165
147	0x3e0d9fc2	0.13830474
148	0x3d9eaf74	0.07748309
149	0x3e3c0d2e	0.18364403
150	0x3b90d114	0.0044194553
151	0x3dc37b47	0.09544998
152	0x3e285f92	0.16442707
153	0x3dcea35d	0.10089753
154	0x3db3309e	0.08749507
155	0x3c9fa0a7	0.019485785
156	0xbc6e6329	-0.014550009
157	0xbd170a5c	-0.036875114
158	0x3e64c929	0.22342362
159	0x3df96830	0.12178075
160	0xbd150bc9	-0.036388192
161	0xbd7d915d	-0.061906207
162	0xbc25c71b	-0.010118271
163	0x3e4ef44f	0.20210384
164	0x3e381d34	0.1797989
165	0x3d90cf73	0.07070818
166	0xbd96ce91	-0.07363618
167	0x3d4418d6	0.047875248
168	0x3e3adc45	0.18248089
169	0x3d6c5631	0.057699386
170	0x3d9968a8	0.07490665
171	0xbde289bb	-0.11061426
172	0x3d8a70ec	0.067598194
173	0x3e61b970	0.22043395
174	0x3e3cec2b	0.18449466
175	0xbe776781	-0.24160577
176	0xbe9d4024	-0.30712998
177	0xbde957ce	-0.113937005
178	0x3d93d789	0.072188444
179	0xbded9268	-0.116001904
180	0xbe7af26c	-0.24506539
181	0xbe46c936	-0.19412693
182	0xbdd3d581	-0.10343457
183	0xbd39c080	-0.045349598
184	0xbe340da2	-0.17583326
185	0xbe6f152d	-0.23347922
186	0xbe5fd12c	-0.21857136
187	0xbdbe12ea	-0.09280951
188	0x3d45e8d9	0.048317764
189	0x3afdef8e	0.0019373761
190	0xbeae3123	-0.34021863
191	0xbe85d511	-0.2613912
192	0xbe2f3397	-0.17109524
193	0xbd12314e	-0.035691552
194	0xbd44ffad	-0.048095394
195	0xbe3154ef	-0.17317556
196	0xbead3940	-0.3383274
197	0xbdbf4979	-0.09340186
198	0xbc836f76	-0.01604436
199	0xbddfa0cc	-0.109193414
200	0xbddb1415	-0.1069719
201	0x3c6d06a9	0.01446692
202	0x3d4ae330	0.04953307
203	0x3ea44fe7	0.3209221
204	0x3e3539b4	0.17697793
205	0xbe477628	-0.19478667
206	0xbdc6f1f1	-0.097141154
207	0x3d319091	0.04335076
208	0x3ec6dc6d	0.38840047
209	0x3e9c3a9d	0.30513468
210	0xbdbc9db6	-0.092097685
211	0xbe527ec9	-0.20556177
212	0x3ca4ef03	0.0201335
213	0x3e853009	0.2601321
214	0x3e9ed75d	0.31023684
215	0xbd0a820e	-0.033815436
216	0xbe0fd4f2	-0.14046076
217	0x3e033639	0.12813653
218	0x3e8013be	0.25015062
219	0x3e88a589	0.26688793
220	0x3d5a27ad	0.053260494
221	0xbdc028ae	-0.09382759
222	0x3df94e19	0.12173099
223	0x3e05add9	0.13054599
224	0x3e615698	0.22005689
225	0x3e2cbc16	0.16868624
226	0x3ebc0b74	0.36727488
227	0x3ee93f72	0.45556217
228	0x3ee66544	0.44999135
229	0x3e9dab10	0.30794573
230	0x3ec66500	0.38748932
231	0x3f0185b6	0.5059465
232	0x3ebd2c55	0.36947885
233	0x3ee75a8c	0.4518627
234	0x3e42a458	0.19008005
235	0x3d99ee8b	0.075162016
236	0x3dfb99d0	0.12285197
237	0x3be49888	0.006976191
238	0xbd8e2ddb	-0.0694234
239	0xbe2c006e	-0.16797039
240	0xbea5531d	-0.32289973
241	0xbe906151	-0.28199247
242	0xbe168719	-0.14699973
243	0xbe042dc2	-0.1290808
244	0x3dbf0792	0.09327616
245	0xbe8b5c01	-0.2721863
246	0xbe170348	-0.14747345
247	0xbeb05d18	-0.34446025
248	0xbe9216fe	-0.28533167
249	0xbeaf6fc8	-0.3426497
250	0xbea87c68	-0.32907414
251	0x3c88a97a	0.016682375
252	0x3d4c5ac9	0.049891267
253	0x3c843fe4	0.016143747
254	0xbab17fba	-0.0013542094
255	0x3b646f1b	0.0034856263

conv1.bias f4 [6]
0	0x3e810d02	0.25205237
1	0xbe4bf08b	-0.19915979
2	0xbe23f538	-0.16011512
3	0xbecc7a0a	-0.39936858
4	0xbd43c206	-0.047792457
5	0x3eb9bed8	0.36278415

conv2.weight f4 [16, 6, 5, 5]
0	0xbd9f6485	-0.077828445
1	0xbde3d581	-0.11124707
2	0xbade90ca	-0.0016980406
3	0xbc39ee6c	-0.011348348
4	0xbdad95b7	-0.084758215
5	0x39221436	0.00015457053
6	0xbd9bcb75	-0.07607166
7	0xbdc0a975	-0.09407321
8	0xbda9640f	-0.08271038
9	0xbd9ec902	-0.07753183
10	0xbd88b6b4	-0.06675473
11	0xbe094828	-0.13406432
12	0xbd993ebb	-0.07482668
13	0xbe5b757d	-0.21431537
14	0xbdd1a76a	-0.1023701
15	0xbe3b0519	-0.18263663
16	0xbe4440ad	-0.19165297
17	0xbe49fe6d	-0.19725962
18	0xbdd25b9a	-0.10271378
19	0xbe0bd94b	-0.1365711
20	0xbe933c8e	-0.28757137
21	0xbe909120	-0.28235722
22	0xbe976f58	-0.29577136
23	0xbe9b1067	-0.30285951
24	0xbe25f87d	-0.16208072
25	0x3e4f0a1c	0.202187
26	0x3dd487e8	0.103774846
27	0xbca6746d	-0.020319188
28	0xbe1d9ce6	-0.15391883
29	0xbdecfd3c	-0.11571738
30	0x3d94fa14	0.07274261
31	0xbcca2179	-0.024674164
32	0x3c8beaaa	0.01707967
33	0x3dd609d5	0.10451094
34	0x3cd583b6	0.026063781
35	0xbabe4360	-0.0014515929
36	0xbe01da8d	-0.12681027
37	0xbdb0d145	-0.08633665
38	0xbda3e994	-0.08003536
39	0xb95b160d	-0.00020893682
40	0xbe10d4db	-0.14143698
41	0xbcc3196c	-0.023815833
42	0xbdf2561c	-0.1183283
43	0xbdde9147	-0.10867553
44	0x3d66c35a	0.056338646
45	0x3bfe9cc3	0.0077701523
46	0xbdd2ba5f	-0.10289454
47	0xbda59576	-0.08085148
48	0xbda5b087	-0.080903105
49	0xbdcbbcfb	-0.099481545
50	0xbd2e3755	-0.042533237
51	0xbc5e94a1	-0.013585241
52	0xbdc82fb2	-0.09774722
53	0x3dab683b	0.0836949
54	0xbc3f8b04	-0.011690859
55	0xbb9b79ee	-0.0047447598
56	0x3c896cc2	0.016775493
57	0xbce475c0	-0.027888179
58	0xba9072ff	-0.00110206
59	0x3e126aab	0.14298503
60	0x3c5a155b	0.013310756
61	0x3dab6f2f	0.08370816
62	0x3cc53fa5	0.0240782
63	0xbe114457	-0.14186226
64	0xbc97d621	-0.018534722
65	0x3daca563	0.084299825
66	0x3dc00b9b	0.093772136
67	0x3dc3398b	0.0953246
68	0xbe33a633	-0.17543869
69	0xbe402ca0	-0.18767023
70	0xbe034aaa	-0.12821451
71	0x3b5b9556	0.003350576
72	0xbc3f0ff2	-0.0116615165
73	0xbe85f3c5	-0.26162544
74	0xbe4468e3	-0.19180636
75	0xbdeed28b	-0.11661252
76	0xbdc666ef	-0.09687602
77	0x3da9ca33	0.082905196
78	0x3dcc4970	0.099749446
79	0x3daf9fba	0.08575387
80	0xbd463766	-0.048392676
81	0x3d965b92	0.073416844
82	0x3c1817f8	0.009283058
83	0xbdbe09dc	-0.09279224
84	0x3e1e08d9	0.15433063
85	0xbd8feb41	-0.07027293
86	0xbe1a1dd6	-0.15050444
87	0xbcfc3a3f	-0.030789493
88	0x3d215c24	0.039394513
89	0x3e31a110	0.17346597
90	0xbe512e22	-0.20427755
91	0xbd877d7a	-0.0661573
92	0xbd9d9d57	-0.07696026
93	0xbd71f0fe	-0.05906772
94	0xbd54bfc5	-0.0519407
95	0xbdeaf78c	-0.11472997
96	0x3cf0423a	0.029328454
97	0xbdf7fc1e	-0.121086344
98	0xbd88fe28	-0.066891015
99	0xbe09ecb0	-0.13469195
100	0x3e000f89	0.12505926
101	0x3e297b6b	0.16550986
102	0xbdc0f247	-0.09421211
103	0x3eac451e	0.33646482
104	0xbc3301f1	-0.010925756
105	0x3ddeee16	0.10885255
106	0xbd323d4b	-0.043515485
107	0xbdf5e5cd	-0.12006722
108	0x3e9879f2	0.29780537
109	0x3e14b11c	0.14520687
110	0xbdb1f853	-0.08689942
111	0xbdd78cc7	-0.10524898
112	0x3e2b7ca6	0.16746768
113	0xbe2d8b9f	-0.16947792
114	0x3e4180f6	0.18896851
115	0xbcd1ea6c	-0.025624476
116	0xbc550326	-0.013001239
117	0x3df8abc8	0.1214214
118	0xbea953b7	-0.33071682
119	0x3e994a55	0.29939523
120	0xbe4c223b	-0.19934933
121	0xbc52ba84	-0.012861852
122	0xbd7ee765	-0.062232394
123	0xbcbbae50	-0.022910267
124	0x3e5b46ef	0.21413778
125	0x3d9edb68	0.07756692
126	0x3d517803	0.051139843
127	0xbd417ce8	-0.04723826
128	0xbdba3df1	-0.09093846
129	0x3d1e2a6d	0.03861468
130	0x3dec62bd	0.1154227
131	0x3d8ff7a5	0.07029656
132	0x3c9fba80	0.01949811
133	0xbaa37560	-0.0012470894
134	0xbd95463f	-0.07288789
135	0x3d624196	0.05523833
136	0xbc64573f	-0.013936817
137	0xbca7263b	-0.020403972
138	0xbdfd01e2	-0.12353875
139	0xbd355edc	-0.044279918
140	0xbd404506	-0.046940826
141	0xbd23c3a8	-0.039981514
142	0xbd2c84fa	-0.042119004
143	0xbde59f37	-0.112120084
144	0xbe5bcfab	-0.21465938
145	0xbd6e4fda	-0.05818162
146	0xbc4dee93	-0.012569088
147	0xbcb41b87	-0.021985782
148	0xbdf17fb5	-0.11791936
149	0xbe49aa5a	-0.1969389
150	0xbe1e9689	-0.15487112
151	0xbd8a4844	-0.06752065
152	0xbde8e46a	-0.113716915
153	0xbd9f0533	-0.077646635
154	0x3d17ec38	0.03709051
155	0xbdb108cb	-0.08644255
156	0xbd269bfd	-0.040676106
157	0xbe08dbec	-0.13365144
158	0xbccacfa6	-0.024757218
159	0xbd0cf799	-0.034415815
160	0xbe30367a	-0.17208281
161	0xbd28facc	-0.041254804
162	0xbd9cb0ab	-0.07650884
163	0x3d002edb	0.031294685
164	0x3d47970a	0.048728026
165	0xbd12dbe5	-0.03585424
166	0x3d9d6752	0.076857224
167	0x3dd04cf3	0.10170927
168	0x3dd2f248	0.10300118
169	0x3e17d3e3	0.14826922
170	0xbc15c83c	-0.009141978
171	0x3c057953	0.008146602
172	0x3c82ce79	0.015967594
173	0x3d7c8eb4	0.06165953
174	0x3dcd4597	0.10023039
175	0xbe0f8b12	-0.14017895
176	0xbd393893	-0.04521997
177	0xbdcf5ba7	-0.10124903
178	0xbda061c4	-0.07831147
179	0xbd930210	-0.07178128
180	0x3d833077	0.06405728
181	0x3d95f9ac	0.07323012
182	0x3cd4dcf2	0.025984261
183	0x3dc20564	0.094736844
184	0x3db28053	0.08715882
185	0x3c5b0548	0.013367958
186	0xbce2bf86	-0.027679216
187	0xbda8793b	-0.08226248
188	0xbc4f8f6c	-0.012668472
189	0xbd5c0aa3	-0.05372108
190	0xbcf966b2	-0.030444477
191	0xbcac0faf	-0.021003572
192	0x3da0f420	0.07859063
193	0x3dbbeda0	0.09176183
194	0x3d9c4a7c	0.07631394
195	0x3dd3b230	0.10336721
196	0x3d5a5121	0.053300027
197	0xb8e0a201	-0.00010711328
198	0xbd2f121e	-0.042741887
199	0xbc887aa2	-0.016660038
200	0x3c3a88b5	0.011385133
201	0xbdb6a25c	-0.08917686
202	0xbb940269	-0.004516889
203	0xbd6d942b	-0.058002632
204	0xbe09658c	-0.13417643
205	0xbcc65056	-0.024208229
206	0xbca6007d	-0.020263905
207	0xbe1abd7f	-0.1511135
208	0xbdf6e253	-0.12054887
209	0xbd826177	-0.06366246
210	0xbd52c40d	-0.0514565
211	0xbe0cb497	-0.13740765
212	0xbe1de910	-0.15420938
213	0xbe01e11b	-0.12683527
214	0xbe2606d3	-0.1621354
215	0xbcd4b34d	-0.025964404
216	0xbe1f79c0	-0.15573788
217	0xbe536a2a	-0.20645967
218	0xbe039673	-0.1285036
219	0xbe06030e	-0.13087103
220	0xbe7917ac	-0.24325436
221	0xbe407ee2	-0.18798402
222	0xbe688373	-0.22706394
223	0xbd9888f3	-0.07447996
224	0xbd1bdc30	-0.038051784
225	0xbd8a79a9	-0.06761486
226	0xbdec0c5e	-0.11525796
227	0xbe282220	-0.16419268
228	0xbde3c5c3	-0.111217044
229	0x3e10d964	0.14145428
230	0x3d777cdf	0.06042182
231	0x3da84b8f	0.08217537
232	0x3e335673	0.17513447
233	0x3e321a0f	0.17392753
234	0x3e5f696a	0.21817556
235	0xbd6b269e	-0.057409875
236	0xbe0fe0b1	-0.14050557
237	0xbdd66c30	-0.10469854
238	0xbe2cf1e2	-0.16889146
239	0xbc926d27	-0.017874314
240	0x3daf86ff	0.0857067
241	0x3ca36ee9	0.019950347
242	0x3e775df4	0.24156934
243	0x3e7fa24e	0.24964258
244	0x3e24d0e8	0.16095316
245	0x3e581c03	0.21104436
246	0x3e8d8325	0.27639118
247	0x3e747ede	0.23876521
248	0x3e21143b	0.15730374
249	0xbd300184	-0.042970195
250	0xbe10577c	-0.14095873
251	0xbd88ff4b	-0.06689318
252	0xbdd323d7	-0.1030957
253	0x39d533b9	0.00040665062
254	0xbe5ff04f	-0.21869014
255	0xbbf9be45	-0.007621559

conv2.bias f4 [16]
0	0x3f872ce3	1.0560573
1	0xbe396c65	-0.18107755
2	0x3dadc0b5	0.084840216
3	0xbf26fe7b	-0.65232056
4	0x3e03080d	0.1279604
5	0xbeb0dac1	-0.34541896
6	0x3df53de5	0.11974696
7	0xbed936a3	-0.42424497
8	0x3db0f51c	0.08640501
9	0xbd4d55a5	-0.050130505
10	0xbc44ee51	-0.01201971
11	0xbeeb6c81	-0.4598122
12	0x3f187234	0.5954926
13	0x3da95e14	0.08269897
14	0x3d955189	0.07290942
15	0xbe460f08	-0.19341671

fc1.weight f4 [120, 400]
0	0x3d19fa64	0.037592307
1	0x3d9b8d3e	0.07595299
2	0x3d77a932	0.06046409
3	0x3c8638f9	0.016384589
4	0x3d092617	0.03348359
5	0x3b09d3b8	0.0021030735
6	0x3d43c97f	0.047799584
7	0x3cfceb3d	0.03087389
8	0xbd567684	-0.05235912
9	0xb84cdfa4	-4.884567e-05
10	0x3c7a1aeb	0.015265207
11	0x3dab2710	0.0835706
12	0x3de50fbf	0.11184644
13	0xbd30ad18	-0.043133825
14	0xbcbb8503	-0.022890573
15	0x3cf50925	0.029911587
16	0x3d076f08	0.033064872
17	0x3d0d0dc9	0.034436975
18	0x3d777bbe	0.060420744
19	0xbcbbf636	-0.022944551
20	0xbcb1c3f1	-0.021699877
21	0x3d1868cd	0.03720932
22	0xbd7633a6	-0.06010785
23	0x3d1eb215	0.03874405
24	0xbc8c7532	-0.017145727
25	0xbdd99813	-0.10624709
26	0xbce42e09	-0.027853983
27	0x3d24bb10	0.04021746
28	0x3d0a4f44	0.033767
29	0xbc4ea3e3	-0.012612316
30	0xbcc1ba8f	-0.023648528
31	0xbc86a8bf	-0.016437886
32	0x3d1f4aa4	0.038889542
33	0x3d166eb4	0.03672667
34	0xbd80529b	-0.06265756
35	0xbcb1e31c	-0.02171474
36	0xbc372eab	-0.01118056
37	0xbb9cb5d6	-0.0047824187
38	0xbd5a4631	-0.053289596
39	0xbd0fef46	-0.0351403
40	0xbd0e4540	-0.03473401
41	0x3b82c3a6	0.0039906083
42	0xbc9f0450	-0.019411236
43	0xbd5f5348	-0.054522783
44	0xbbbb9053	-0.005723992
45	0xbda21ca1	-0.07915617
46	0xbd85c38a	-0.06531437
47	0xbd2c320c	-0.042039916
48	0xbd209622	-0.039205678
49	0xbdb19d57	-0.08672588
50	0x3d53c8c9	0.051705156
51	0x3d7d1033	0.061783027
52	0x3d7103fc	0.05884169
53	0x3d38f2b6	0.045153342
54	0x3d9f27c5	0.07771257
55	0x3d786944	0.060647264
56	0xbc71e255	-0.014763434
57	0x3d0ea7cb	0.03482799
58	0xbd14cd62	-0.03632868
59	0xbc82bbc6	-0.015958678
60	0xbcaf8f26	-0.021430563
61	0xbd4c3892	-0.049858637
62	0x3d3847ec	0.044990465
63	0xbcbe029e	-0.023194607
64	0xbbd6c961	-0.006554768
65	0xbd25fc03	-0.04052354
66	0x3ca56735	0.020190815
67	0x3c08e158	0.008354507
68	0x3abf8360	0.0014611296
69	0x3d51910e	0.051163726
70	0x3dab9099	0.08377189
71	0x3dc39df1	0.09551609
72	0x3cfc9c1f	0.030836163
73	0x3bca6a2a	0.0061772065
74	0xbd1a95aa	-0.037740387
75	0x3d9e7260	0.07736659
76	0x3d9bbdf3	0.07604589
77	0x3c01ac16	0.007914564
78	0xbd15318e	-0.036424212
79	0x3d2fa2af	0.042879757
80	0xbd3ef3c3	-0.046619188
81	0x3d145ade	0.03621947
82	0x3d6015f8	0.05470845
83	0x3ce84c04	0.02835656
84	0xbc55c4f9	-0.01304745
85	0xbab875ca	-0.001407319
86	0x3c53ac34	0.012919474
87	0x3d03858d	0.032109786
88	0x3d0a0baa	0.03370253
89	0xbd8a6591	-0.067576535
90	0xbcdd3f84	-0.027007826
91	0xbd829515	-0.063760914
92	0xbcf883dd	-0.030336315
93	0xbc254d0d	-0.010089171
94	0xbd7cd39c	-0.061725244
95	0xbd9cf8a8	-0.07664615
96	0xbcd6dcb1	-0.02622828
97	0xbd23366b	-0.03984682
98	0xbcf1cc0e	-0.029516246
99	0xbc63bc63	-0.013899895
100	0x3d4754f1	0.04866499
101	0xbae80343	-0.0017701167
102	0x3ae3c045	0.0017376026
103	0x3d10b548	0.035329133
104	0x3bf84920	0.0075770766
105	0xbc2aba46	-0.010420388
106	0x3b47a1ee	0.0030461508
107	0xbcc9f9ff	-0.02465534
108	0x3c2c6456	0.010521969
109	0x3bed47de	0.0072412333
110	0xbca42d62	-0.020041171
111	0x3d318f2f	0.04334944
112	0xbd058c36	-0.03260442
113	0x3d378546	0.044804834
114	0x3d356dba	0.044294097
115	0x3d776f69	0.060408983
116	0xbb27e490	-0.0025618412
117	0xbc801d8f	-0.015639095
118	0xbbd114b1	-0.0063806404
119	0x3c25097a	0.01007306
120	0x3d83fe0d	0.06444941
121	0xbccef634	-0.025263883
122	0x3ca0d4b9	0.019632684
123	0x3d6b362d	0.057424713
124	0x3d80e384	0.06293395
125	0xbd179073	-0.037002992
126	0x3ba2125e	0.004946037
127	0x3c54f794	0.01299848
128	0x3cf2744a	0.029596467
129	0xbda858ea	-0.08220084
130	0xbcb78c77	-0.022405846
131	0x3cf01245	0.029305587
132	0x3d26a214	0.040681913
133	0x3c439b70	0.011938915
134	0xbc81efd2	-0.015861426
135	0x3d296b10	0.04136187
136	0x3d909ad5	0.07060782
137	0x3d700f3b	0.058608275
138	0xbd121935	-0.03566857
139	0xbd20b20b	-0.039232295
140	0x3d278592	0.040898867
141	0x3c4920e8	0.012275912
142	0xbca2b158	-0.019859955
143	0x3c729b44	0.014807526
144	0x3b6642a6	0.003513494
145	0xbc386910	-0.011255518
146	0x3b1b06e9	0.0023655242
147	0x3d8f325d	0.06992028
148	0x3d0f7e1d	0.03503238
149	0xbd456c59	-0.04819903
150	0x3c8c1337	0.017099006
151	0x3cb48cf8	0.022039875
152	0xbca44d66	-0.020056438
153	0xbd2ac476	-0.041691266
154	0x3ce6ddb6	0.028181892
155	0x3cbcbcde	0.023039278
156	0xbd28a60e	-0.041173987
157	0x3cb1b16f	0.021691052
158	0xbc3b9db9	-0.011451178
159	0x3d34fceb	0.044186514
160	0xbce31365	-0.027719209
161	0xbd1546f8	-0.036444634
162	0x3d37c20f	0.044862803
163	0x3b8bcef4	0.004266614
164	0xbd0f33c6	-0.034961484
165	0xbd205a74	-0.039148763
166	0x3cd42ff2	0.025901768
167	0xbc56b3b2	-0.013104366
168	0x3b634689	0.0034679493
169	0x3d5b8aae	0.053599052
170	0x3c5cecaf	0.013484164
171	0x3cb140af	0.021637289
172	0x3a88165f	0.0010382644
173	0x3ca123ad	0.019670332
174	0x3b296f9f	0.0025853885
175	0xbb8f1d9d	-0.004367544
176	0x3be090f0	0.0068532154
177	0x3d456da7	0.048200276
178	0x3cca4e05	0.024695406
179	0xbd1a1467	-0.037617113
180	0xbd790264	-0.060793296
181	0x3a60ede0	0.0008580368
182	0x3c2a9cd5	0.010413368
183	0x3cef8627	0.029238774
184	0xb98e3b6c	-0.00027128623
185	0xbd1a70d9	-0.037705276
186	0x3b2e3648	0.0026582647
187	0x3b425610	0.0029653348
188	0xb9dbbbc6	-0.00041910837
189	0xbb9c3679	-0.004767236
190	0xbc7802ba	-0.015137369
191	0x3cbb2619	0.022845315
192	0xbcbab3f4	-0.022790886
193	0xbcfa84e6	-0.030580949
194	0xbd03a84c	-0.032142922
195	0xbd2a3e18	-0.041563123
196	0xbd5e2a78	-0.05423972
197	0xbd275d63	-0.040860545
198	0xbda4c7e7	-0.08045941
199	0xbd175f72	-0.036956258
200	0xbc63d12f	-0.013904854
201	0x3c1d9457	0.0096178865
202	0xbd14ab45	-0.036296148
203	0x3d1c17bf	0.038108584
204	0x3b864831	0.0040979614
205	0xbd614c6c	-0.055004522
206	0xbc4283b5	-0.011872222
207	0x3cc26048	0.023727551
208	0x3ccebdbf	0.025236962
209	0x3c73d5e9	0.014882543
210	0x3cc1c2fa	0.023652542
211	0xbc9e9cba	-0.019361842
212	0xbc6678a5	-0.01406685
213	0x3cafb356	0.021447819
214	0x3cc9846a	0.024599273
215	0xbcca2410	-0.024675399
216	0x3c1a9b6b	0.009436469
217	0xbc1d1ab6	-0.009588888
218	0xbce1ed65	-0.027579019
219	0x3d0c619f	0.034272786
220	0xbc9fdd27	-0.019514633
221	0xbd556d9e	-0.052106492
222	0x3c554749	0.013017484
223	0xbc5a4bc5	-0.013323729
224	0x3d002ab2	0.031290717
225	0xbd0704b1	-0.03296346
226	0xbc769e24	-0.015052352
227	0xbc9d6a4b	-0.019215723
228	0xbcc346eb	-0.023837527
229	0xbcf646b7	-0.030063016
230	0xbdade438	-0.08490795
231	0xbc897fac	-0.016784512
232	0x3c8cc5e5	0.017184207
233	0x3d1b2e10	0.037885725
234	0xbd5028bd	-0.0508201
235	0xbd07f87c	-0.033195958
236	0x3c12010f	0.008911385
237	0x3cf8ffa7	0.030395342
238	0x3caa6f8d	0.020805145
239	0xbccc63b1	-0.02494988
240	0xbd49f114	-0.049302176
241	0x3c3e77e1	0.011625261
242	0x3d54f43f	0.051990744
243	0x3c1f0ad7	0.009707174
244	0xbccae1bf	-0.024765847
245	0xbdb537d0	-0.08848536
246	0xbd71fd18	-0.05907926
247	0x3c826cbb	0.015920987
248	0xbb87e639	-0.0041473177
249	0xbbab46e4	-0.0052269567
250	0xbd62e5e6	-0.05539503
251	0xbcf75a48	-0.030194417
252	0x3d90fb72	0.070792094
253	0xbd4202f8	-0.047366112
254	0xbbfbc61e	-0.0076835295
255	0x3c61aa8a	0.01377357

fc1.bias f4 [120]
0	0x3dd99b4e	0.10625325
1	0xbdc88512	-0.09791006
2	0x3d5a4fad	0.05329864
3	0xbc45a456	-0.0120631065
4	0xbd6b0772	-0.057380147
5	0x3d758704	0.059943214
6	0x3da88d33	0.082300566
7	0xbdb6d4c0	-0.089272976
8	0x3d37a31d	0.04483329
9	0xbdad46ba	-0.08460756
10	0xbcc67b1a	-0.024228621
11	0x3d5ceb7f	0.053935524
12	0x3dafeed0	0.08590472
13	0xbd5ea686	-0.054358028
14	0x3c17c6be	0.009263692
15	0xbdc20e59	-0.09475393
16	0x3d2b03d6	0.041751705
17	0x3b561d4c	0.003267127
18	0x3c70616e	0.014671667
19	0x3c6df0f9	0.014522784
20	0xbc4f63de	-0.012658088
21	0xbe1a02a8	-0.15040076
22	0xbcb88676	-0.022525053
23	0x3c950f77	0.01819585
24	0xbd6a7264	-0.057237998
25	0x3e028242	0.12745002
26	0xbc2e56f0	-0.010640845
27	0x3c4380f6	0.011932602
28	0x3d5141a8	0.051088005
29	0xbc176ba9	-0.009241977
30	0x3da4cb2f	0.08046567
31	0x3daf2c53	0.08553376
32	0x3d5df788	0.054191142
33	0x3e88cf87	0.2672083
34	0x3e33960f	0.17537712
35	0x3ca57422	0.020196978
36	0xbbb010fb	-0.005373118
37	0xbcb3f987	-0.02196957
38	0x3da74733	0.08167877
39	0x3dc87f15	0.09789864
40	0x3ddbbc32	0.10729255
41	0x3c557b20	0.013029844
42	0xbd9e1989	-0.07719714
43	0xbd656bca	-0.056011
44	0x3d6514be	0.055927984
45	0xbd3a3e93	-0.04546983
46	0xbcffaeb8	-0.031211242
47	0x3d098fcf	0.033584412
48	0x3d5fb6b6	0.054617606
49	0xbd75da19	-0.060022447
50	0x3d5f87c7	0.054572847
51	0x3da0fcfd	0.07860754
52	0x3c8802a9	0.016602831
53	0x3d5c6e20	0.05381596
54	0xbd995846	-0.0748754
55	0x3e4e130a	0.2012445
56	0x3da937d0	0.082625985
57	0x3d878420	0.06616998
58	0xbc81bce3	-0.015837139
59	0xbd317ff9	-0.043334935
60	0x3e05efe9	0.130798
61	0x3dbce779	0.092238374
62	0xbd46ebda	-0.04856477
63	0xbd70bfaa	-0.058776535
64	0x3e0e2038	0.13879478
65	0xbd842e15	-0.06454102
66	0x3c9c4144	0.01907409
67	0x3c58cd92	0.0132326055
68	0x3ce0e7d2	0.02745429
69	0x3c85e670	0.016345233
70	0x3e235619	0.15950812
71	0x3e1b20f2	0.15149286
72	0xbd80046c	-0.062508434
73	0xbd67fa98	-0.05663547
74	0xbe26a9ee	-0.1627576
75	0xbde9adb7	-0.114100866
76	0xbdc4a685	-0.096020736
77	0x3e0103b4	0.12599069
78	0x3d3e919a	0.046525575
79	0x3d920a72	0.071308985
80	0x3dc0aad7	0.09407585
81	0x3d6056a3	0.054770123
82	0x3c167f97	0.009185693
83	0x3d1c54ab	0.038166683
84	0x3c99c495	0.018770495
85	0x3c9f500f	0.019447355
86	0xbc29c86a	-0.010362724
87	0x3d1e82ab	0.038698833
88	0xbc869269	-0.016427236
89	0xbd7ba45a	-0.061436035
90	0xbd0b26ba	-0.03397248
91	0xbc6784a5	-0.014130746
92	0x3d04f7dc	0.03246294
93	0x3d2c02ff	0.041995045
94	0xbd94a97c	-0.07258889
95	0x3e13f4ae	0.14448807
96	0xbb882f97	-0.004156064
97	0x3d2ba74d	0.041907597
98	0x3db45ffb	0.08807369
99	0x3d1d3e98	0.038389772
100	0xbcfa507e	-0.03055596
101	0xbd5ffebd	-0.054686297
102	0x3d92c645	0.07166723
103	0xbd8d763b	-0.06907316
104	0x3da92a87	0.082600646
105	0x3bfa59d8	0.0076401047
106	0xbe4b6e3f	-0.19866274
107	0xbc53c4a7	-0.012925304
108	0xbd0e6555	-0.034764607
109	0x3cc64043	0.024200564
110	0x3d5e4a81	0.05427027
111	0x3e2ddb6e	0.16978237
112	0x3dbdb488	0.09262949
113	0xbdc5f3e7	-0.09665661
114	0x3d252508	0.04031852
115	0x3d3dabb5	0.04630633
116	0x3e0f7b43	0.14011864
117	0x3d7a38e9	0.06108943
118	0x3d27bec5	0.040953416
119	0xbbe169e2	-0.0068790773

fc2.weight f4 [84, 120]
0	0x3d26445b	0.040592533
1	0xbd753a31	-0.05986995
2	0x3c599e32	0.013282346
3	0xbd9c79c8	-0.076404154
4	0xbdac1def	-0.08404147
5	0xbd7237c2	-0.059135206
6	0xbd23169a	-0.039816476
7	0xbd89ee71	-0.06734932
8	0xbd390bdb	-0.045177322
9	0xbbcbebf8	-0.006223198
10	0x3d81fd8b	0.063471876
11	0xbd1f7d8d	-0.038938094
12	0xbdb066a8	-0.0861333
13	0x3d1e210e	0.038605742
14	0x3c0ff388	0.00878609
15	0xbcb169ff	-0.021656988
16	0xbb282b01	-0.0025660398
17	0xbdadc31f	-0.08484482
18	0xbd8dcc02	-0.06923677
19	0x3d611111	0.054947916
20	0xbd9c9c21	-0.07646967
21	0xbcd00c97	-0.025396628
22	0x3bf58103	0.007492186
23	0xbdc0451c	-0.093881816
24	0xbd633f18	-0.055480093
25	0x3d2667e0	0.040626407
26	0x3c6b5ba6	0.014365112
27	0x3c4077f7	0.011747352
28	0xbd7566ef	-0.05991262
29	0xbd5e92ee	-0.05433934
30	0x3d47b982	0.0487609
31	0xbc5a7213	-0.0133328615
32	0x3ba672be	0.0050795963
33	0xbd2e4930	-0.042550266
34	0x3d05360c	0.032522246
35	0xbd365e69	-0.04452363
36	0x3cdbcdf0	0.026831597
37	0x3daec922	0.08534457
38	0x3d9f38b8	0.0777449
39	0x3d5af0d8	0.053452343
40	0xbd8984ae	-0.0671476
41	0xbd46df12	-0.04855258
42	0xbd816025	-0.06317166
43	0x3a0b85b7	0.0005322354
44	0xbcc154b0	-0.023599952
45	0x3d9dff64	0.077147275
46	0xbcc2f6b2	-0.023799274
47	0xbba7bff2	-0.005119317
48	0x3cfdfebc	0.031005256
49	0x3d85accd	0.065271
50	0xbc48eaf5	-0.012263049
51	0xbd3e699f	-0.046487447
52	0x3d4a9796	0.04946097
53	0x3d97823b	0.07397886
54	0x3d9433c0	0.07236433
55	0x3cf6281d	0.030048424
56	0xbd20b9c0	-0.039239645
57	0x3ccde3ad	0.025132978
58	0xbd3bc97a	-0.04584644
59	0xbd474d5d	-0.048657764
60	0x3d4c1e3d	0.049833525
61	0xbd8f1a88	-0.06987482
62	0xbd8c464d	-0.06849346
63	0xbd4f1b88	-0.050563365
64	0x3ba80d35	0.0051285275
65	0xbc3ebc27	-0.011641539
66	0xbcef19c4	-0.02918709
67	0x3cfcb9a8	0.030850247
68	0xbd926896	-0.071488544
69	0x3cf2a949	0.029621737
70	0xbc57dae7	-0.013174749
71	0x3d8826ad	0.06648002
72	0x3c74f8c2	0.014951887
73	0x3d55389a	0.052055933
74	0xbd72c478	-0.0592694
75	0x3ccad2ff	0.024758814
76	0xbc8f1b08	-0.017468944
77	0x3d213bbe	0.039363615
78	0xbd690102	-0.056885727
79	0xbd7df340	-0.06199956
80	0xbd17b7e2	-0.0370406
81	0x3db3221a	0.08746739
82	0xbd3ae0c7	-0.04562452
83	0xbd023374	-0.03178735
84	0x3d0ba26e	0.034090452
85	0xbd2ae4d4	-0.041722134
86	0x3d741e2c	0.059599087
87	0x3cd248e3	0.02566952
88	0xbd8caa3a	-0.06868406
89	0x3ccdabf5	0.02510641
90	0xbd7f1517	-0.062275972
91	0xbd9b76c2	-0.07591011
92	0xbd57a283	-0.052645218
93	0xbd264c91	-0.040600363
94	0x3cef3f3c	0.029204957
95	0xbdb00e56	-0.08596484
96	0xbd182787	-0.03714707
97	0xbd16263b	-0.036657553
98	0xbd6ef658	-0.0583404
99	0xbd8d7aa6	-0.06908159
100	0xbd73acf3	-0.05949111
101	0xbdb6540d	-0.0890275
102	0x3d9c0bcd	0.07619438
103	0xbdb8ecba	-0.09029527
104	0x3da3054c	0.07959995
105	0xbd9688eb	-0.07350334
106	0xbdb7080d	-0.089370824
107	0x3d6c2763	0.05765475
108	0x3cb19490	0.021677285
109	0x3d00b3ea	0.03142158
110	0xbd8b59dd	-0.068042494
111	0xbcf5885c	-0.029972248
112	0x3ca5e94f	0.020252852
113	0xbd89907c	-0.06717011
114	0x3d9507c6	0.07276873
115	0xbdaf5a29	-0.085621186
116	0xbd0fbe0e	-0.03509336
117	0x3d9ae767	0.07563668
118	0x3d432f39	0.047652457
119	0xbd18bcf5	-0.03728958
120	0x3dd78535	0.10523454
121	0xbc24d6b4	-0.010060955
122	0x3d77700d	0.060409594
123	0xbdfbeb69	-0.1230076
124	0xbc992bee	-0.018697705
125	0x3dc43362	0.09580113
126	0xbdb8963f	-0.09013032
127	0xbdae04c5	-0.084970035
128	0xbd5e0524	-0.05420412
129	0x3da70b86	0.08156495
130	0xbc9ad720	-0.018901408
131	0xbd919bd4	-0.071098
132	0x3d0cb82f	0.03435534
133	0xbd86810e	-0.06567584
134	0xbc35a0cd	-0.011085701
135	0x3d0bca7d	0.034128655
136	0x3d6b1fb8	0.057403296
137	0xbdb48d22	-0.088159814
138	0xbd4d5065	-0.0501255
139	0x3d826f4c	0.063688844
140	0x3df8f491	0.12156022
141	0x3dbdd7d4	0.092696816
142	0xbb03afbd	-0.0020093762
143	0x3da611a0	0.081088305
144	0xbd074e6c	-0.033033773
145	0x3d88fd41	0.06688929
146	0xbca98dbc	-0.020697467
147	0x3cbc3284	0.022973306
148	0x3c474019	0.012161278
149	0x3d276bf6	0.040874444
150	0x3d5fe6c3	0.05466343
151	0xbe0f69fe	-0.14005277
152	0x3ca81cc9	0.020521538
153	0xbd40ca08	-0.047067672
154	0x3d81073c	0.06300208
155	0xbca61be4	-0.020276971
156	0x3d2c0ea4	0.04200615
157	0x3acd25e7	0.0015651555
158	0xbd33d352	-0.043902703
159	0x3c6a66b0	0.014306709
160	0xbde59f04	-0.112119704
161	0x3dee035e	0.11621736
162	0x3d2454b7	0.040119853
163	0x3d785492	0.060627528
164	0xbbeefb0c	-0.0072931107
165	0x3b80e7e3	0.003933893
166	0xbbd68bd8	-0.0065474324
167	0xbadf1ab5	-0.0017021509
168	0x3dbc35fc	0.09189984
169	0x3da8f61d	0.082500674
170	0x3d1f1771	0.038840715
171	0x3dba6d6e	0.09102903
172	0x3c80b61d	0.015711838
173	0x3d060f6a	0.032729544
174	0x3c36ea18	0.011164211
175	0xbdd88d28	-0.105737984
176	0xbd511317	-0.051043596
177	0xbd5c6cfb	-0.05381487
178	0x3db2e04b	0.08734187
179	0x3cbb55a6	0.022867989
180	0xbdf1e312	-0.11810888
181	0x3de99c6f	0.114067905
182	0x3cf738fb	0.030178538
183	0xbd4b9231	-0.049699966
184	0xbd8c3b50	-0.068472505
185	0x3d4bc08a	0.049744166
186	0x3c5c19ef	0.013433917
187	0xbb9cbe0c	-0.0047833975
188	0x3d1c1208	0.038103133
189	0xbdd0af68	-0.10189706
190	0xbdc49577	-0.09598821
191	0xbdc19e25	-0.09453992
192	0x3c504753	0.0127123175
193	0xbd5a698e	-0.05332332
194	0xbd0f1780	-0.03493452
195	0x3d9c9739	0.07646031
196	0xbd60e435	-0.054905135
197	0x3b10c9ad	0.0022092864
198	0x3d0c965b	0.034323078
199	0xbdfa08e8	-0.1220873
200	0xbd539b5c	-0.051661834
201	0xb9e15913	-0.0004298171
202	0x3d33c78a	0.043891467
203	0xbcdc3e29	-0.026885109
204	0xbddd7586	-0.108134314
205	0x3d8634bb	0.06553026
206	0xbdac7518	-0.08420771
207	0x3d33c519	0.04388914
208	0x3c8f6d62	0.017508212
209	0xbd8be8e0	-0.06831527
210	0x3cbdc09c	0.023163132
211	0x3c216634	0.009851027
212	0xbd0cbcac	-0.03435962
213	0x3cb8b617	0.022547765
214	0xbd84a29b	-0.06476327
215	0x3d55c802	0.052192695
216	0xbdf023b3	-0.11725559
217	0xbd64b3ea	-0.055835642
218	0x3d20b0b8	0.039231032
219	0xbd3eaad9	-0.04654965
220	0x3d916d39	0.07100911
221	0x3da1a09b	0.07891961
222	0x3cdced5a	0.026968647
223	0x3db3478c	0.08753881
224	0x3db413be	0.08792828
225	0x3d504155	0.050843555
226	0xbdace177	-0.084414415
227	0xbcb34143	-0.021881705
228	0xbd77de6a	-0.060514845
229	0x3d1f8ccc	0.038952634
230	0xbd9614b7	-0.0732817
231	0x3ce1c82f	0.027561275
232	0xbd64d11f	-0.055863496
233	0xbdae2e4b	-0.085049234
234	0x3d353152	0.04423649
235	0x3d8d4635	0.068981566
236	0x3cd23fe5	0.025665233
237	0x3c9fa3ca	0.01948728
238	0xbd6d63a1	-0.05795634
239	0xbd35f08c	-0.044418857
240	0x3cfb7dba	0.0306996
241	0xba99f0ef	-0.0011744777
242	0xbdd1e644	-0.10248998
243	0x3de35c4a	0.11101587
244	0x3d281802	0.04103852
245	0xbc90e5ec	-0.01768776
246	0xbd15a454	-0.03653367
247	0x3d83f3a2	0.06442954
248	0xbdac57cc	-0.084151834
249	0xbd666b1f	-0.056254502
250	0xbca2c31c	-0.019868426
251	0xbd24512c	-0.040116474
252	0xbb299df6	-0.0025881506
253	0x3e0f9228	0.14020598
254	0xbcf8953e	-0.030344602
255	0x3c9c0fc0	0.019050479

fc2.bias f4 [84]
0	0x3d342cd2	0.043988056
1	0x3b9fabce	0.0048727756
2	0x3e26a24b	0.16272847
3	0xbd6c3bfe	-0.0576744
4	0xbc89a60f	-0.016802816
5	0xbc8b2417	-0.016984982
6	0xbdb6e25e	-0.08929895
7	0xbdac4a1a	-0.08412571
8	0x3e3b308d	0.1828024
9	0x3e1c8e57	0.15288673
10	0x3ea31559	0.31852224
11	0xbd5a0574	-0.053227857
12	0x3e30db6f	0.17271207
13	0x3ecbb658	0.39787555
14	0x3e2e7c42	0.17039588
15	0xbd4f40d4	-0.050598934
16	0xbd50ff7b	-0.051024895
17	0xbe0b7ff9	-0.13623036
18	0x3e51dbd7	0.20494018
19	0x3e8aa754	0.27080786
20	0x3db09808	0.08622748
21	0x3e3b31c2	0.182807
22	0xbd223417	-0.039600458
23	0xbda5815d	-0.08081315
24	0xbda7a19b	-0.08185121
25	0x3e5eef11	0.21770884
26	0xbd9b8820	-0.07594323
27	0x3d3f9ecd	0.046782304
28	0x3e82c8fc	0.25543964
29	0xbdc2c1da	-0.095096305
30	0x3d715f5f	0.058928844
31	0x3e45983b	0.19296353
32	0xbd88f0f0	-0.0668658
33	0xb88d2023	-6.72939e-05
34	0x3dfb0062	0.122559324
35	0xbd06e52f	-0.03293341
36	0x3d2e7d5a	0.042600013
37	0xbe1be202	-0.15222934
38	0x3e8ee456	0.27908581
39	0x3d69955e	0.057027213
40	0x3c7bb7c3	0.015363636
41	0x3d8740c0	0.06604147
42	0x3e3c0b0f	0.18363594
43	0xbb4cb8a0	-0.0031237975
44	0x3e3ab24f	0.18232082
45	0x3e8a70af	0.27039096
46	0xbd28bcbe	-0.041195624
47	0x3e634310	0.22193551
48	0x3d0dc7ae	0.034614258
49	0xbcb31e77	-0.021865113
50	0xbc0146eb	-0.007890443
51	0xbdbf3b68	-0.09337503
52	0xbd1d5b8e	-0.03841739
53	0xbe1978e1	-0.14987518
54	0xbe2bd110	-0.1677897
55	0x3e6335b2	0.22188452
56	0x3e8fc1f3	0.2807766
57	0x3e67ab81	0.22624017
58	0xbdc6dea2	-0.097104326
59	0xbe7159d8	-0.23569429
60	0x3d112385	0.035434265
61	0xbdcef3d8	-0.10105103
62	0x3e6e12ab	0.23249309
63	0xbd2f899a	-0.042855836
64	0x3da1c430	0.07898748
65	0xbd2173b9	-0.039417002
66	0x3d38a481	0.04507876
67	0x3c870881	0.016483547
68	0x3e893ea7	0.26805612
69	0x3e738782	0.23782161
70	0xbd909e22	-0.070614114
71	0x3d8cc86e	0.068741664
72	0x3d99bc72	0.07506646
73	0x3bc491dc	0.005998833
74	0xbe0f490f	-0.13992713
75	0x3e0093cb	0.12556379
76	0xbda3d3a8	-0.079993546
77	0xbc83cb50	-0.016088158
78	0x3d9b0554	0.07569376
79	0xbd370b2c	-0.04468839
80	0xbd30dc4b	-0.043178838
81	0x3da5fa2d	0.08104358
82	0x3c1c7a6d	0.009550673
83	0x3d8eb2a5	0.069676675

fc3.weight f4 [10, 84]
0	0x3d43aaec	0.047770426
1	0x3e49a25f	0.19690846
2	0x3e90f370	0.28310728
3	0xbdef9bfb	-0.11699673
4	0x3d8265c3	0.06367066
5	0x3c7846cf	0.015153601
6	0xbe17c74f	-0.14822124
7	0x3d15ab1e	0.036540143
8	0x3cf81250	0.03028217
9	0x3cdaff76	0.026733141
10	0xbe860869	-0.2617829
11	0xbd884a3d	-0.06654785
12	0x3d0faeb1	0.035078708
13	0xbdfc4b62	-0.12319066
14	0x3e7c136e	0.24616787
15	0xbe01649b	-0.12636034
16	0x3cd7f07a	0.026359785
17	0x3d4e1792	0.050315447
18	0x3e999b4a	0.3000129
19	0x3e720cf0	0.23637748
20	0xbe03275f	-0.12807988
21	0x3d70e5cb	0.058812898
22	0xbc91b005	-0.017784128
23	0xbdbbf041	-0.09176684
24	0x3cfc5fe1	0.030807437
25	0x3ddd2705	0.10798458
26	0x3ddff766	0.109358594
27	0x3d7dd0ef	0.061966833
28	0x3dc197b9	0.09452767
29	0x3e129618	0.14315069
30	0xbde46fbb	-0.111541234
31	0xbe378897	-0.17923199
32	0xbdc30abc	-0.09523532
33	0xbdc4f010	-0.09616101
34	0xbdbcca85	-0.09218315
35	0xbcba625f	-0.022751985
36	0xbdf29a21	-0.11845804
37	0xbd57aa2f	-0.052652534
38	0xbe987fd0	-0.29785013
39	0xbe13e2c5	-0.14441974
40	0xbdb1fbb3	-0.08690586
41	0x3c5e761f	0.013577967
42	0xbd934298	-0.07190436
43	0xbd1a3dd7	-0.03765663
44	0x3e3d7c44	0.18504435
45	0x3e071eee	0.13195392
46	0x3d81d2a2	0.06339003
47	0xbe23180d	-0.15927143
48	0xbe0af676	-0.1357058
49	0x3b9abca6	0.0047221957
50	0x3dbc588c	0.091965765
51	0x3e3b1e75	0.18273337
52	0x3cfff2a5	0.031243632
53	0x3d5ee8ab	0.05442111
54	0x3e42f138	0.1903733
55	0xbdd5f77a	-0.10447593
56	0x3e3d72bc	0.18500799
57	0x3dfd2e26	0.12362318
58	0xbd264dc2	-0.0406015
59	0xbdc1a521	-0.09455324
60	0x3cb5f802	0.022212986
61	0xbd2adda3	-0.041715275
62	0x3e54910c	0.20758456
63	0x3e2cc09b	0.16870348
64	0x3d6009f9	0.05469701
65	0xbdb40944	-0.0879083
66	0xbd0d57cb	-0.034507554
67	0x3c8c7654	0.017146267
68	0xbe27a1b2	-0.16370276
69	0x3e566868	0.20938265
70	0x3d931efa	0.07183643
71	0x3c95b655	0.01827542
72	0x3a6ed957	0.00091113657
73	0xbcb8a990	-0.022541791
74	0xbd33ac15	-0.043865282
75	0xbd873356	-0.066015884
76	0x3d7b051d	0.061284173
77	0x3e154377	0.14576517
78	0xbe44ca11	-0.19217707
79	0x3d632427	0.0554544
80	0xbce0bcae	-0.02743372
81	0x3e819358	0.25307727
82	0xbe3e4863	-0.18582301
83	0x3c21f982	0.009886147
84	0x3c7a677e	0.0152834635
85	0xbe1af8a0	-0.15133905
86	0x3e5b6a74	0.21427327
87	0xbc2b9b27	-0.010474003
88	0x3d5d42df	0.05401885
89	0xbcb3da7d	-0.02195477
90	0xbd6fe4eb	-0.058567923
91	0x3c4ffde3	0.012694809
92	0xbe370443	-0.1787272
93	0xbd17d57b	-0.037068825
94	0xbe8ffd9f	-0.28123185
95	0x3de2c428	0.1107257
96	0xbd9ec1d5	-0.07751814
97	0xbe483630	-0.19551921
98	0xbd4a6a21	-0.04941762
99	0x3e878be3	0.26473913
100	0x3e1475c8	0.14498055
101	0x3c52e3bd	0.01287168
102	0xbe5e08dd	-0.21683069
103	0x3da7c998	0.08192748
104	0x3d8b6d15	0.06807915
105	0xbdcf69c7	-0.10127597
106	0x3e7761be	0.2415838
107	0xbd5f6af1	-0.054545347
108	0x3d8fb9b8	0.07017845
109	0xbe6d0eae	-0.23150131
110	0xbd9364e4	-0.07196978
111	0xbaf99c47	-0.0019043767
112	0xbe86ce42	-0.26329237
113	0xbe1167ed	-0.14199801
114	0xbc924fd9	-0.01786034
115	0x3d834b0e	0.064108
116	0x3cf190e7	0.02948804
117	0x3da7ce55	0.081936516
118	0xbe1eadcb	-0.15495984
119	0xbc38ad40	-0.011271775
120	0xbd26846b	-0.040653627
121	0x3ce053ae	0.027383652
122	0xbc929f97	-0.017898364
123	0x3da476fb	0.08030506
124	0xbd9dd0e1	-0.07705856
125	0x3e223fa5	0.15844591
126	0xbcb238b2	-0.02175555
127	0xbde0e893	-0.1098186
128	0xbdd6e7dc	-0.104934424
129	0x3b806dd2	0.0039193416
130	0xbda9a728	-0.08283836
131	0xbe416f16	-0.18890032
132	0x3c9861cd	0.018601323
133	0xbd89acd0	-0.067224145
134	0xbd61c891	-0.055122916
135	0x3d1b0595	0.03784712
136	0x3d82e1a6	0.06390695
137	0xbd9223d7	-0.07135742
138	0xbd952fcd	-0.07284508
139	0xbec73d1a	-0.38913804
140	0x3e87f006	0.2655031
141	0xbe90d727	-0.28289148
142	0xbdaca39a	-0.08429642
143	0x3e6f1eb9	0.23351564
144	0x3e8a84f9	0.27054575
145	0x3e163224	0.14667565
146	0x3c2c4efc	0.010516878
147	0x3e89c975	0.26911512
148	0xbb8802e3	-0.0041507347
149	0x3c8678c2	0.016415004
150	0xbdbb0c39	-0.09133191
151	0x3ce50b1d	0.0279594
152	0xbdc3eac0	-0.095662594
153	0xbe74ac1d	-0.23893781
154	0xbcac181d	-0.021007592
155	0x3d1984c5	0.037480135
156	0x3e1e58f4	0.1546362
157	0xbc2188c0	-0.009859264
158	0x3ea5ae13	0.3235937
159	0x3c35d4ec	0.011098128
160	0xbc84d4aa	-0.016214687
161	0x3d9cad66	0.076502606
162	0xbd8f9289	-0.07010371
163	0x3c0e30f5	0.008678664
164	0xbce14e55	-0.027503172
165	0x3e28036d	0.16407557
166	0x3e0adb3b	0.13560192
167	0xbdd85153	-0.10562386
168	0x3ab580b1	0.0013847557
169	0x3e188af4	0.14896756
170	0x3e117f7c	0.14208788
171	0x3e08fd33	0.13377838
172	0x3c5b93d0	0.01340194
173	0x3d9ec85c	0.07753059
174	0xbd3d0bbb	-0.046153765
175	0x3df4f948	0.11961609
176	0xbd97832a	-0.073980644
177	0xbd21bc2a	-0.039486088
178	0xbb965d73	-0.0045887767
179	0x3d0deacc	0.034647748
180	0xbd14aee1	-0.03629959
181	0x3e830853	0.25592288
182	0xbce525a0	-0.027972043
183	0xbe1f065e	-0.15529773
184	0x3d2b8407	0.041873958
185	0xbd853616	-0.06504457
186	0x3e731db6	0.23741803
187	0xbcf9acfd	-0.030477995
188	0x3e2c5fce	0.16833422
189	0x3be454f5	0.0069681355
190	0xbe38b031	-0.18035962
191	0x3dbfef0d	0.09371767
192	0xbd802dac	-0.06258711
193	0x3e6862a4	0.22693878
194	0x3d371431	0.04469699
195	0x3e2b1427	0.16706906
196	0x3e232189	0.15930761
197	0x3d8380dd	0.06421063
198	0x3ddcea9d	0.107869364
199	0x3d8233d0	0.06357539
200	0x3e71c81b	0.2361149
201	0x3d7044e0	0.058659434
202	0xbbedb8de	-0.007254704
203	0xbdbbdbab	-0.09172758
204	0xbd9ac7b5	-0.07557622
205	0xbd863878	-0.06553739
206	0x3e8e3185	0.27772155
207	0xbabe89f6	-0.0014536965
208	0x3dc20a22	0.09474589
209	0x3e48c94f	0.19608043
210	0xbe37051a	-0.1787304
211	0xbd85ef2a	-0.065397575
212	0x3da25942	0.07927181
213	0x3d637677	0.0555329
214	0xbd801bc0	-0.06255293
215	0x3e140101	0.14453508
216	0xbd68dc86	-0.056850933
217	0x3d20acd7	0.039227333
218	0xbe7b8e9e	-0.24566123
219	0xbd4be6ca	-0.049780644
220	0x3c544f32	0.012958335
221	0xbe13fcdc	-0.14451927
222	0xbdaf2fe3	-0.085540555
223	0x3dd8330e	0.10556613
224	0xbe2923ee	-0.16517612
225	0x3e84ff8c	0.25976217
226	0x3cad138f	0.02112749
227	0xbe44e1c0	-0.19226742
228	0xbde433aa	-0.11142667
229	0xbdae65ea	-0.08515532
230	0x3df92a06	0.121662185
231	0xbde1e16d	-0.11029325
232	0x3e60c58a	0.21950355
233	0xbddef330	-0.10886228
234	0xbde26c3f	-0.110558026
235	0xbd688291	-0.056765143
236	0xbc543736	-0.012952616
237	0x3e873588	0.2640803
238	0xbc97aadb	-0.018514087
239	0x3e5afe61	0.213861
240	0xbc2dd41d	-0.010609654
241	0xbdbcfdf1	-0.09228123
242	0xbbc164e4	-0.0059019197
243	0x3db38dbf	0.0876727
244	0x3be9dbad	0.007136783
245	0xbde40b06	-0.11134915
246	0x3cc43e25	0.023955414
247	0xbdbc24b3	-0.09186687
248	0xbb715722	-0.0036825617
249	0xbd60237f	-0.05472135
250	0xbe29ef9e	-0.16595313
251	0xbd0a76c2	-0.033804663
252	0xbd84598d	-0.06462393
253	0x3dcc6e40	0.09981966
254	0xbe0375fc	-0.12837976
255	0xbd99657e	-0.07490061

fc3.bias f4 [10]
0	0x3d7576ee	0.059927873
1	0xbef91a6a	-0.48652965
2	0x3e8034bb	0.2504023
3	0x3e9260c5	0.28589454
4	0x3ee02f23	0.43785962
5	0xbe1c52a1	-0.15265895
6	0x3d2aa001	0.041656498
7	0xbf03be5a	-0.5146233
8	0x3f0fdfac	0.5620067
9	0xbea57534	-0.3231598
